model.tflite (tflite, 170944 bytes, 9 tensors)

sequential_2/normalization/truediv;sequential_2/normalization/Sqrt f4 [1, 2]
0	0x3a3986ba	0.0007077266
1	0x3c1d17ba	0.009588176

Const_1 f4 [1, 2]
0	0x453be3b8	3006.2324
1	0x4334b176	180.6932

sequential_2/dense_10/BiasAdd/ReadVariableOp f4 [256]
0	0x3ef1439c	0.47121894
1	0x3e9e7526	0.30948752
2	0x3f172647	0.5904278
3	0x3f0ba83e	0.5455359
4	0x3f1e4ae8	0.6183305
5	0x3cb9b13b	0.022667518
6	0x3f6147ef	0.88000387
7	0x3f049f35	0.5180543
8	0xbd0c842c	-0.034305736
9	0x3ef7f221	0.48426917
10	0x3f29160a	0.66049254
11	0xbda14187	-0.078738265
12	0x3ee5c31a	0.44875413
13	0x3ed0e072	0.40796238
14	0x3f27524f	0.6535997
15	0xbe847148	-0.25867677
16	0x3ee8cda0	0.4546938
17	0x3ed08b57	0.40731308
18	0x3e92022c	0.28517282
19	0x3f0d6f31	0.5524779
20	0x3f2db612	0.6785594
21	0x3ed1e08f	0.40991637
22	0x3f2cb6fb	0.67466706
23	0x3f36c2a1	0.7139073
24	0x3efc2fb9	0.4925516
25	0x3ed4f7de	0.41595358
26	0x3f2b55e4	0.66927934
27	0x3ee1d1a4	0.44105256
28	0x3f2d7d08	0.6776891
29	0x3f1c968a	0.61167204
30	0x3f0b0e22	0.5431844
31	0x3f3862b0	0.72025585
32	0x3f0a65b8	0.5406146
33	0x3f0ad909	0.5423742
34	0x3ef40a7c	0.4766425
35	0x3f1734a9	0.5906473
36	0x3edb2071	0.42798188
37	0x3e25a272	0.16175249
38	0x3eb18daf	0.34678409
39	0x3f389f9c	0.72118545
40	0x3f0d707f	0.5524978
41	0x3f19020b	0.5976874
42	0x3ef3236d	0.47487965
43	0x3f216ea9	0.6305948
44	0x3f1d9b89	0.6156545
45	0x3f0262ac	0.5093181
46	0x3ef8371b	0.48479542
47	0x3f4f1064	0.80884385
48	0x3f29b841	0.66296774
49	0x3ef8da57	0.4860408
50	0x3ee07659	0.43840292
51	0xbe7fa538	-0.2496537
52	0x3f0c24da	0.5474373
53	0x3ede2430	0.43386984
54	0x3f0ae7ea	0.5426012
55	0x3ee64980	0.4497795
56	0x3f1b70bb	0.6071889
57	0x3f48e2ee	0.7847127
58	0x3e1f3570	0.15547729
59	0x3f02ca12	0.51089585
60	0x3eb7adb5	0.35874715
61	0x3f255024	0.6457541
62	0x3f06aa6a	0.5260378
63	0x3ebf654d	0.37381974
64	0x3f065c66	0.5248474
65	0x3eced51b	0.40396962
66	0x3eea092a	0.45710117
67	0x3f2e3aed	0.68058664
68	0x3ee7fdd8	0.45310855
69	0x3ef5fd19	0.4804466
70	0x3f16e694	0.58945584
71	0x3f1ff2bb	0.6247975
72	0x3f242167	0.6411347
73	0x3f16e623	0.5894491
74	0x3f25c6e9	0.6475664
75	0x3e3fd8d5	0.18735059
76	0x3ed2a32a	0.4114011
77	0x3f331714	0.6995709
78	0x3edd444e	0.43216175
79	0x3f21d5ed	0.6321705
80	0x3f14219c	0.57863784
81	0xbe410773	-0.18850498
82	0xbe117bb7	-0.1420735
83	0x3ee53bef	0.44772288
84	0x3f2a4915	0.66517764
85	0x3ecbd7fd	0.39813223
86	0x3f2b11a3	0.66823786
87	0xbd32a9c2	-0.043618925
88	0x3f239a3e	0.6390723
89	0x3ec9232b	0.39284644
90	0x3f19f4b8	0.60139036
91	0x3f1bee66	0.6091064
92	0x3f0a01ac	0.539088
93	0x3f049d27	0.51802295
94	0x3f22821f	0.634798
95	0x3f1612be	0.5862235
96	0x3f036bb1	0.513362
97	0xbde6d96b	-0.11271938
98	0x3f246700	0.64219666
99	0x3ed035d4	0.40666068
100	0x3eb8b3ad	0.36074582
101	0x3f27ef89	0.65599877
102	0x3ee3913b	0.4444674
103	0x3efac5fc	0.48979175
104	0x3f04c3c7	0.5186123
105	0x3f14bd35	0.58101207
106	0x3f2a6c63	0.66571635
107	0x3f273d17	0.6532759
108	0x3f05ef3d	0.52318174
109	0x3f0a026b	0.5390994
110	0x3ec60cef	0.38681743
111	0xbef5f288	-0.480366
112	0x3eb0492b	0.34430823
113	0x3f1d5760	0.6146145
114	0x3edfcced	0.43711033
115	0x3ef4fc50	0.4784875
116	0x3f2a8a70	0.6661749
117	0x3f2cb7f7	0.6746821
118	0x3e575744	0.21029383
119	0x3f11a793	0.5689632
120	0xbe339e21	-0.1754079
121	0x3f3b8231	0.7324553
122	0xbcd70b2b	-0.026250442
123	0x3ecc2d36	0.39878243
124	0x3f0f15e1	0.5589276
125	0x3ef35f6b	0.47533736
126	0x3f151229	0.58230835
127	0xbbd33706	-0.0064457683
128	0x3f093240	0.535923
129	0x3edcd776	0.43133134
130	0x3ebd3a35	0.3695847
131	0x3ea180b0	0.31543493
132	0x3ed80144	0.42188466
133	0x3f100f73	0.56273574
134	0x3df83584	0.12119582
135	0x3e4fcf84	0.20294005
136	0x3f0c07dc	0.5469949
137	0x3ec0faa7	0.37691233
138	0xbeae913e	-0.34095186
139	0x3f378429	0.71686035
140	0x3e72e9f5	0.2372206
141	0x3e3cff22	0.184567
142	0x3f2b8ccb	0.6701171
143	0x3ed771c5	0.42078987
144	0x3f2acdbd	0.6672018
145	0x3f092b6a	0.5358187
146	0x3f33146f	0.69953054
147	0x3f0dcd75	0.5539163
148	0x3efdc09b	0.4956101
149	0x3ec72514	0.38895476
150	0x3f2fcbc1	0.6867028
151	0x3f32ea5c	0.69888854
152	0x3f316fd9	0.6931129
153	0x3f1b51c1	0.6067162
154	0x3eeab899	0.45843962
155	0xbe7678d1	-0.24069525
156	0x3edd6b66	0.43246
157	0x3edca3fa	0.43093854
158	0x3f135456	0.5755056
159	0x3f17f5ed	0.5935963
160	0x3f25bc35	0.64740306
161	0x3e64c25c	0.22339767
162	0x3f04a01a	0.51806796
163	0x3e66d24b	0.22541158
164	0x3f0377b4	0.5135453
165	0x3f178df7	0.59200996
166	0x3eeb73fc	0.45986927
167	0x3f0337b3	0.51256865
168	0x3de9a3f0	0.11408222
169	0x3c16c8ea	0.009203175
170	0x3f312b60	0.6920681
171	0x3ee5af2c	0.44860208
172	0x3e8499d9	0.25898626
173	0x3e142972	0.14468935
174	0x3f1190d3	0.5686161
175	0x3eec5781	0.4616051
176	0x3eb227cf	0.34795997
177	0x3f08e553	0.5347492
178	0x3ec9eb78	0.3943746
179	0x3ef7c22c	0.4839033
180	0x3eb13e50	0.34617853
181	0x3f2dc8d6	0.67884576
182	0x3f24aa57	0.6432242
183	0xbe671583	-0.225668
184	0x3eda67be	0.42657274
185	0x3eced5c0	0.40397453
186	0xbeac3232	-0.33632046
187	0x3f0ba8e9	0.5455461
188	0x3f203d33	0.6259338
189	0xbed12c61	-0.4085417
190	0x3edcbe5f	0.43113992
191	0x3eef1848	0.46698213
192	0x3f04ebd0	0.5192232
193	0x3ebb78a2	0.36615473
194	0x3d8299eb	0.06377014
195	0x3f206877	0.626594
196	0x3f1e8690	0.61924076
197	0x3e57892b	0.21048419
198	0x3ec22e8b	0.37926134
199	0xbe8d3803	-0.27581796
200	0x3f33915b	0.7014367
201	0x3ed635fb	0.4183806
202	0x3f0d17b9	0.5511432
203	0x3f155746	0.58336294
204	0x3ef9f85c	0.48822296
205	0x3f1a2f2e	0.6022824
206	0x3e8538eb	0.26019987
207	0xbc06c12b	-0.008224766
208	0x3f018166	0.5058807
209	0x3ee5d5ab	0.44889578
210	0x3f281375	0.6565469
211	0x3f342660	0.70371056
212	0x3ed495b4	0.41520464
213	0x3f182b4e	0.5944108
214	0xbee83def	-0.45359752
215	0x3eedd4c5	0.46451393
216	0x3eda5ab8	0.42647338
217	0x3ee9f589	0.4569514
218	0x3ec40898	0.38287807
219	0x3ef30a88	0.47468972
220	0x3ef12ee9	0.47106102
221	0x3eea155d	0.45719424
222	0x3eac743e	0.33682436
223	0x3e36a21b	0.17835276
224	0x3e622778	0.22085369
225	0x3ee34f16	0.44396275
226	0x3eb1dfad	0.34740964
227	0x3f37cec3	0.7179987
228	0x3f2f9d98	0.68599844
229	0x3ecf4029	0.40478638
230	0x3ee5b631	0.44865564
231	0x3eda1e21	0.42601112
232	0x3ee636aa	0.4496358
233	0x3eec3ac2	0.4613858
234	0x3ec9976f	0.39373347
235	0x3f26b525	0.65120155
236	0x3f3741e4	0.71584916
237	0x3f02acd9	0.51044995
238	0x3e1c1b5f	0.15244816
239	0xbe410273	-0.1884859
240	0xbde396f3	-0.11112776
241	0xbef1ea9f	-0.47249314
242	0x3f31be0f	0.6943063
243	0x3f005d31	0.501422
244	0x3f069463	0.5257017
245	0x3ecf8e8d	0.40538445
246	0x3f257710	0.646348
247	0x3f0fbd1c	0.56147933
248	0x3f0baf48	0.5456433
249	0xbdeb9540	-0.115030766
250	0x3e4fc74f	0.20290874
251	0x3f1fb502	0.6238557
252	0x3f04367d	0.5164564
253	0x3f05b543	0.5222971
254	0x3e9572a6	0.29189032
255	0xbf0295cb	-0.51009816

sequential_2/dense_11/BiasAdd/ReadVariableOp f4 [128]
0	0x3ebbb79e	0.36663526
1	0xbc033f1d	-0.008010653
2	0x3e097ba7	0.13426076
3	0x3e1db6ba	0.15401736
4	0x3e74b026	0.2389532
5	0x3ef75ddd	0.483138
6	0xbc88ee13	-0.016715085
7	0x3effb38d	0.49941674
8	0xbc029322	-0.0079696495
9	0x3e5dcda2	0.21660474
10	0x3f0a0fe6	0.5393051
11	0x3ec4798c	0.38373983
12	0x3edeed32	0.4354034
13	0xbc6b3d50	-0.01435788
14	0x3e6ae259	0.22937907
15	0x3f096503	0.53669757
16	0x3e6b04eb	0.22951095
17	0x3e77fb5f	0.24216984
18	0x3eb3de34	0.35130465
19	0x3ef9c99b	0.48786625
20	0x3e676a77	0.22599207
21	0x3ef26b45	0.47347465
22	0x3eca43fa	0.39504987
23	0x3edae5d6	0.42753476
24	0x3e7f6993	0.24942617
25	0x3ed1e658	0.4099605
26	0x3eba053f	0.36332127
27	0xba16261c	-0.00057277246
28	0x3e556bac	0.20841855
29	0x3e501a5c	0.20322555
30	0x3e66980c	0.22518939
31	0xbc66c29f	-0.014084487
32	0xbc2e540e	-0.010640157
33	0x3eedc9ba	0.46442968
34	0x3e6891e6	0.22711906
35	0x3e7333c5	0.23750217
36	0x00000000	0.0
37	0x3ecfb472	0.40567356
38	0x3dbb1b50	0.09136069
39	0x3e787f28	0.24267256
40	0x3e73aeef	0.237972
41	0x3ebc406f	0.3676791
42	0xbc148746	-0.009065455
43	0x3e6c6057	0.23083626
44	0xbc123965	-0.008924817
45	0xbc2623b6	-0.01014035
46	0x3e5a8db2	0.21343115
47	0x3e9a5a50	0.30147028
48	0x3ef7aaa7	0.48372385
49	0x3edb88bc	0.42877758
50	0x3e6b92b5	0.23005183
51	0x3e7242cb	0.23658292
52	0xbc5fb70a	-0.01365448
53	0x3ed7ed2a	0.4217313
54	0x3eb5222d	0.35377637
55	0x3e6a51fe	0.2288284
56	0x3e61dae2	0.22056153
57	0x3efc31ba	0.49256688
58	0x3e67d0ea	0.22638288
59	0x3ee8459f	0.45365617
60	0xbc554101	-0.013015986
61	0x3e7163a4	0.23573166
62	0x3e5b3294	0.21406013
63	0xbc748ad6	-0.014925679
64	0x3e5d6ca5	0.21623476
65	0x3ef74d6c	0.48301256
66	0x3e64edf0	0.22356391
67	0x3e1556e8	0.14583933
68	0x3ee8c6be	0.45464128
69	0xbd938b2c	-0.07204279
70	0x3f085eea	0.5326983
71	0x3f07a0c2	0.5297967
72	0x3e0cdbbd	0.13755699
73	0x3e63907c	0.22223085
74	0x3e3f23e7	0.1866604
75	0xbc25951e	-0.010106353
76	0x3efd807f	0.49512097
77	0xbc1f1f14	-0.009711999
78	0x00000000	0.0
79	0x3e7cb07f	0.24676703
80	0xbc7432e3	-0.01490471
81	0xbbe69cce	-0.0070377355
82	0x3ef8744a	0.48526222
83	0x3e66e535	0.22548373
84	0x3eca5941	0.3952122
85	0x3eb147c6	0.3462507
86	0x00000000	0.0
87	0x3dafdb17	0.0858671
88	0x3ed6fdcb	0.41990504
89	0x3e6896f8	0.2271384
90	0x3e584233	0.21119003
91	0x3ed740b8	0.42041564
92	0x3ef5ff0a	0.48046142
93	0x3efc1fe4	0.4924308
94	0x3dca45f7	0.09876626
95	0xbc80f7de	-0.015743192
96	0x3ef5c144	0.47999012
97	0x3ee195ce	0.44059604
98	0x3e79a45f	0.24379109
99	0x3e5366ce	0.20644686
100	0xbc3eee92	-0.011653559
101	0x3efbf039	0.49206713
102	0x3edb4e44	0.4283315
103	0x3e726802	0.23672488
104	0x3ebb45d6	0.36576718
105	0x3ed4827e	0.41505808
106	0x3d3d3b89	0.046199355
107	0x3ea92828	0.3303845
108	0x3dadba2b	0.08482774
109	0x3ccc12f2	0.024911378
110	0x3e717b6d	0.2358224
111	0x3e71aef6	0.23601899
112	0x3e5c5f1c	0.21520656
113	0x3e7c63ae	0.246474
114	0x3e64b8cc	0.2233612
115	0x3e7e4b35	0.24833377
116	0x3f101815	0.56286746
117	0x3d84c4fd	0.06482885
118	0xbc5bd0a6	-0.013416445
119	0x3de3bd76	0.11120121
120	0x3ebd9043	0.37024125
121	0x3e62a543	0.22133355
122	0x3eda57d9	0.42645147
123	0x3f080aa1	0.5314122
124	0x3edbac54	0.42904913
125	0x3eb41756	0.35174054
126	0x3e6f08f6	0.23343262
127	0x3ebc006c	0.36719072

sequential_2/dense_12/BiasAdd/ReadVariableOp f4 [64]
0	0x3e9512e1	0.29115966
1	0x3e6bfeb9	0.23046388
2	0xbb840c79	-0.004029807
3	0x3e904f9a	0.2818573
4	0x3e9af5f1	0.30265763
5	0xbc7089be	-0.014681278
6	0x00000000	0.0
7	0x3e72f18b	0.23724954
8	0x3e9de818	0.30841136
9	0x3e3ef53d	0.18648238
10	0x3ea6ec0f	0.32601973
11	0xbc893419	-0.016748475
12	0x3e54da5d	0.20786424
13	0x3e804a05	0.25056472
14	0x3e59bcae	0.21263382
15	0xbc0e8be3	-0.008700344
16	0x3eaf7bc0	0.342741
17	0x3e86df4f	0.26342246
18	0x3e664298	0.22486341
19	0x3e6146b9	0.21999635
20	0x3ea532ea	0.32265407
21	0x3e8688e3	0.2627631
22	0x3e9b0de6	0.3028404
23	0x3e86c179	0.26319483
24	0x3e7bd5a2	0.24593213
25	0xbcfecceb	-0.031103572
26	0x3e632861	0.22183372
27	0xbe98bba5	-0.2983066
28	0x3e5dda68	0.21665347
29	0x3e7ea301	0.24866869
30	0xbbf00867	-0.0073252204
31	0x3ec21f58	0.37914538
32	0x3e685791	0.22689654
33	0x3e5558be	0.20834634
34	0xbc5aa763	-0.013345572
35	0x3e3922ec	0.18079728
36	0x3e5aa13e	0.21350572
37	0x3e75ee99	0.24016799
38	0x3e86d0d9	0.26331213
39	0xbc3a1f16	-0.0113599505
40	0x3eb33734	0.35003054
41	0xbc1a8292	-0.009430544
42	0xbcc223ae	-0.023698654
43	0x3eaa88ad	0.333074
44	0xbe83df2e	-0.2575621
45	0x3e67e817	0.22647129
46	0x3eabe9d7	0.33576843
47	0x3e887a22	0.2665568
48	0x3e4b0dd1	0.1982949
49	0x3ec11ccd	0.37717286
50	0xbe7dddfc	-0.24791712
51	0x3eaa8abf	0.3330898
52	0x3e8f9d10	0.28049517
53	0x3ebb2085	0.36548248
54	0x3eb92281	0.36159137
55	0x3e779080	0.24176216
56	0x3e828806	0.25494403
57	0x3e97c61d	0.29643336
58	0x3e329202	0.1743851
59	0x3e3cdd1c	0.18443722
60	0x3eb2da08	0.3493197
61	0x3ea878fe	0.3290481
62	0xbce5056f	-0.027956693
63	0x3e5d9634	0.21639329

sequential_2/dense_10/MatMul f4 [256, 2]
0	0x3c795f27	0.01522044
1	0xbdebc9ee	-0.115131244
2	0x3e1b9984	0.1519528
3	0x3f6fd86a	0.93689597
4	0x3e5550d6	0.20831618
5	0x3deaf5d1	0.11472667
6	0x3e64137a	0.22273055
7	0x3d8f714e	0.07004033
8	0xbdada7b9	-0.08479256
9	0x3e931cbb	0.28732857
10	0x3e91b5a9	0.28458908
11	0xbed36f8c	-0.4129604
12	0x3d3238e9	0.043511305
13	0x3f07a58a	0.5298697
14	0xbdc70b65	-0.0971897
15	0xbe5c0ee8	-0.21490061
16	0x3e4c8347	0.19971953
17	0x3f7a1081	0.9768143
18	0x3da7f885	0.08201698
19	0x3f3c2eaf	0.73508734
20	0x3e27ba11	0.16379572
21	0x3e3d0efe	0.1846275
22	0x3deaf136	0.114717886
23	0xbf0ae648	-0.5425763
24	0x3d95bbb3	0.073111914
25	0xbea32465	-0.31863704
26	0x3e0fe08a	0.14050499
27	0xbdd4378e	-0.10362159
28	0x3e1b7374	0.1518076
29	0x3f018038	0.5058627
30	0x3e7059a0	0.23471689
31	0x3f84a007	1.0361336
32	0x3e6fa921	0.23404361
33	0xbd30c1dc	-0.04315363
34	0x3d817b7f	0.06322383
35	0xbe937550	-0.2880044
36	0x3dbf03d6	0.093269035
37	0xbe5d8574	-0.2163294
38	0x3e3fc7ab	0.18728511
39	0x3ded1652	0.11576523
40	0xbdde806d	-0.10864339
41	0x3f01553c	0.5052068
42	0x3d7f6c26	0.062358998
43	0xbe75401c	-0.23950237
44	0x3e3c0c47	0.18364058
45	0x3eeb9b91	0.46017125
46	0x3e49d130	0.19708705
47	0x3eea2b46	0.4573614
48	0xbef565d5	-0.47929254
49	0x3ebf3791	0.3734708
50	0x3e1b4d8a	0.15166298
51	0xbe198190	-0.1499083
52	0x3e6569d4	0.22403651
53	0x3ea133ee	0.31484932
54	0x3db01ed6	0.085996315
55	0x3ca18912	0.01971868
56	0x3e171d0d	0.14757176
57	0x3e6654b2	0.22493246
58	0xbd8f3390	-0.06992257
59	0x3f17ec26	0.5934471
60	0x3dd0903c	0.101837605
61	0x3e2f4d0d	0.17119236
62	0xbdb6358b	-0.08896931
63	0x3ee9c909	0.4566119
64	0xbe4b9e3c	-0.1988458
65	0xbd5ab979	-0.053399537
66	0xbe2e4874	-0.17019826
67	0xbddc0dfd	-0.107448556
68	0x3dd03c67	0.10167771
69	0xbe8786a2	-0.26469904
70	0x3e1ce21d	0.1532063
71	0x3e31144a	0.17292896
72	0x3dcbcd6b	0.0995129
73	0xbe018cca	-0.12651363
74	0x3e14a95d	0.14517732
75	0x3f5cb3c9	0.8621183
76	0x3df811fd	0.12112806
77	0x3f4286e9	0.75987107
78	0xbcee0717	-0.029056115
79	0x3ec896d8	0.39177585
80	0xbdfba594	-0.12287441
81	0x3e10e87c	0.14151186
82	0xbdabdfad	-0.08392272
83	0x3f442149	0.7661329
84	0x3d6a64d8	0.05722508
85	0x3bd6850c	0.006546622
86	0xbe40fb1d	-0.18845792
87	0x3e55eb6a	0.20890585
88	0x3e6eacef	0.23308156
89	0x3e607fe0	0.2192378
90	0x3e88874f	0.26665732
91	0x3c47b229	0.012188473
92	0x3e7a3c07	0.24436961
93	0x3c90a1dd	0.017655307
94	0xbcea0ce6	-0.028570604
95	0x3ee2cf01	0.44298556
96	0x3dd78297	0.10522955
97	0x3e890db9	0.26768282
98	0x3e784e37	0.24248587
99	0x3d04bfa1	0.032409314
100	0x3e7e07fa	0.2480773
101	0x3d7f0381	0.0622592
102	0x3e781db4	0.24230081
103	0x3f711744	0.94176126
104	0x3e083117	0.13299976
105	0x3e836196	0.2566039
106	0x3df12250	0.11774123
107	0xbe44e399	-0.19227447
108	0x3e2133a8	0.15742362
109	0x3e64e58c	0.2235319
110	0xbcd1cd4b	-0.025610587
111	0xbe254af1	-0.16141869
112	0x3e60b18c	0.21942729
113	0x3dfba21a	0.12286778
114	0xbdfa7f9e	-0.12231372
115	0x3f0c6bbe	0.548519
116	0x3e188fd7	0.1489862
117	0x3f6a2610	0.9146433
118	0x3df48fc2	0.11941482
119	0x3e266636	0.16249928
120	0x3e073c83	0.13206677
121	0xbe7bf2f5	-0.246044
122	0x3e3d70e3	0.18500094
123	0x3e27afa4	0.16375595
124	0x3dcb191b	0.09916898
125	0x3f2adf15	0.66746646
126	0x3d6cd72f	0.057822403
127	0xbe45310f	-0.19256996
128	0xbdd6e13a	-0.10492177
129	0xbe55940f	-0.20857261
130	0x3d946df9	0.07247538
131	0xbd65b5bf	-0.05608153
132	0x3e770998	0.24124753
133	0xbcca84a0	-0.024721444
134	0x3e28927e	0.16462132
135	0x3ea8c4ec	0.3296274
136	0xbee972bc	-0.45595348
137	0x3ddfd044	0.109283954
138	0x3e897513	0.26847133
139	0xbd99783a	-0.074936345
140	0xbd3f5a09	-0.046716724
141	0x3dd64d52	0.104639664
142	0xbd28ab8e	-0.041179232
143	0x3ea6f850	0.32611322
144	0xbe4ebe31	-0.2018974
145	0x3e51d1f5	0.20490249
146	0xbe35c73e	-0.17751786
147	0x3e4753be	0.19465539
148	0x3e269f85	0.1627179
149	0x3ead6e77	0.3387334
150	0x3e493d03	0.1965218
151	0xbe8a560c	-0.27018774
152	0x3da5073a	0.08058019
153	0xbe8aefe9	-0.27136162
154	0xbd135491	-0.03596932
155	0x3ebf6e83	0.37389
156	0x3e007235	0.12543567
157	0xbe332f9b	-0.17498629
158	0xbd26e24c	-0.040743157
159	0x3ea987bd	0.33111373
160	0xbdcd7905	-0.10032848
161	0x3e80b993	0.25141582
162	0x3ef1179c	0.47088325
163	0xbe8b042b	-0.27151617
164	0x3dac1207	0.08401876
165	0xbf0b61a2	-0.5444585
166	0x3e5ada23	0.21372275
167	0xbd64d995	-0.055871565
168	0x3e1a98e8	0.15097392
169	0x3e4ba2c1	0.19886304
170	0x3e151272	0.14557818
171	0xbe8c7f9d	-0.2744111
172	0xbe02e6ed	-0.12783404
173	0x3e8ff53a	0.2811678
174	0x3e268030	0.16259837
175	0x3f5bfec8	0.8593564
176	0x3e56fdf8	0.20995319
177	0x3e9d7f11	0.30761006
178	0x3d1379fc	0.036005005
179	0xbe652a79	-0.22379483
180	0xbd870e76	-0.06594555
181	0x3f0d5a55	0.5521596
182	0xbdb05daf	-0.08611619
183	0x3e8f7fc6	0.2802717
184	0xbda3122a	-0.07962449
185	0xbdacf3b1	-0.08444918
186	0x3db3c23e	0.08777283
187	0x3f3e2ff9	0.7429195
188	0xbdb9b90c	-0.09068498
189	0x3f2f2f82	0.68431866
190	0x3e4693df	0.19392346
191	0x3de7103f	0.112823956
192	0xbf0ba925	-0.5455497
193	0x3e1862aa	0.14881387
194	0x3ddd87a7	0.10816889
195	0xbf0f96f6	-0.56089723
196	0x3e102277	0.14075647
197	0x3e4db658	0.2008909
198	0x3dce33e3	0.1006849
199	0xbe313b4d	-0.17307778
200	0x3e047f5a	0.12939206
201	0xbe06307b	-0.13104431
202	0x3d9d8cec	0.07692894
203	0x3ee1c156	0.44092816
204	0x3dcb0df8	0.09914774
205	0xbdfe44d3	-0.12415471
206	0x3c544e35	0.012958099
207	0xbdf2542c	-0.11832461
208	0x3d1c289a	0.03812466
209	0x3f214e5e	0.63010204
210	0xbe06ad02	-0.13151935
211	0x3e685344	0.22688013
212	0x3e65af48	0.22430146
213	0x3e9fdab3	0.31221542
214	0x3e368319	0.17823447
215	0x3ec0d6c9	0.37663868
216	0x3e2adce7	0.1668583
217	0x3dd4a879	0.10383696
218	0x3e166ed2	0.14690712
219	0x3edec0ef	0.43506572
220	0x3e0b54a5	0.13606508
221	0x3f47e2d9	0.7808052
222	0x3e87f87c	0.26556766
223	0x3f5b43bb	0.85650223
224	0x3d647ff7	0.0557861
225	0xbe7b151a	-0.24519768
226	0xbe509891	-0.203707
227	0x3e403734	0.18771058
228	0x3daaf48e	0.08347426
229	0xbe82a1ed	-0.25514165
230	0x3e1b4753	0.15163927
231	0x3e6a8586	0.22902498
232	0xbd426e17	-0.04746827
233	0x3f04f015	0.51928836
234	0xbd4da9eb	-0.050210875
235	0x3eb2411b	0.34815297
236	0x3e59ca39	0.21268548
237	0xbe97d61c	-0.2965554
238	0x3e7ac504	0.24489218
239	0x3d9118c1	0.070847996
240	0x3ee32c95	0.4436995
241	0xbe84390e	-0.2582478
242	0xbd11a140	-0.03555417
243	0x3ec9176f	0.3927569
244	0xbc234ec0	-0.009967506
245	0xbb32fb31	-0.0027310366
246	0x3d72a04f	0.059234913
247	0xbe8d934b	-0.27651438
248	0xbe4e0dcc	-0.2012245
249	0xbd557899	-0.052116964
250	0x3e847b92	0.25875527
251	0x3b1be5b7	0.0023788044
252	0x3e70d30f	0.23518012
253	0x3dae88e8	0.085222065
254	0x3e32dfb3	0.17468147
255	0x3f492f29	0.78587586

sequential_2/dense_11/MatMul f4 [128, 256]
0	0x3e4eac1f	0.20182846
1	0xbdb15efc	-0.08660695
2	0x3e8e9e7d	0.27855292
3	0x3df98a28	0.12184554
4	0x3e9e7e1a	0.30955583
5	0xbe7c71da	-0.24652806
6	0x3ea618ab	0.32440695
7	0x3e36e4f1	0.17860772
8	0x3d353ead	0.044249225
9	0xbb404db8	-0.00293432
10	0x3eb15764	0.34636986
11	0xbf0fbc4a	-0.5614668
12	0xbe37d531	-0.1795242
13	0xbd8a2737	-0.06745761
14	0x3e3c6918	0.18399465
15	0xbdcb71bd	-0.09933803
16	0xbdf7d6d2	-0.121015206
17	0xbe405021	-0.18780567
18	0xbe50ca6f	-0.20389722
19	0x3e6c737d	0.2309093
20	0x3e598303	0.21241383
21	0xbd96a9ea	-0.07356627
22	0x3ea60a03	0.32429513
23	0x3ea80740	0.3281803
24	0xbc882443	-0.016618853
25	0xbd9b6c52	-0.0758902
26	0x3e96a1a0	0.29420185
27	0xb88f5ada	-6.835694e-05
28	0x3e5d63b5	0.21620066
29	0x3e375353	0.1790288
30	0x3e736bc0	0.23771572
31	0x3df5470d	0.119764425
32	0x3ed7f85f	0.4218168
33	0x3ec0e622	0.37675577
34	0xbe082f1e	-0.13299224
35	0x3e3dc80c	0.18533343
36	0x3d348a3e	0.04407715
37	0xbda3e7b0	-0.08003175
38	0x3c529d88	0.012854941
39	0x3ed880f5	0.42285886
40	0x3e982e99	0.2972305
41	0x3d2de144	0.04245116
42	0x3dfb3dab	0.122676216
43	0x3efb8f84	0.4913293
44	0x3e078fdc	0.13238472
45	0x3de33b4d	0.11095295
46	0x3c90c9bb	0.017674318
47	0x3e7ff9fd	0.24997707
48	0x3ed7bb24	0.42134964
49	0xbce77f01	-0.028258802
50	0xbd94708d	-0.0724803
51	0xbd23c383	-0.039981376
52	0x3e1888f1	0.14895989
53	0xbd98a473	-0.07453241
54	0x3e64f8ea	0.22360578
55	0x3d70e7d3	0.058814835
56	0x3e08e473	0.13368396
57	0x3ea0bc18	0.31393504
58	0x3d1192e5	0.03554048
59	0x3e3943f8	0.18092334
60	0xbe94822a	-0.29005557
61	0x3e603a66	0.21897277
62	0x3e110816	0.14163241
63	0x3c7623cd	0.015023184
64	0x3e4ea405	0.20179756
65	0x3d0710fe	0.03297519
66	0x3d8af17e	0.06784342
67	0x3ed6f50e	0.41983837
68	0x3e69b689	0.22823538
69	0xbdaf9cab	-0.08574804
70	0x3e96fd6a	0.29490215
71	0x3ebf8a38	0.3741014
72	0x3ea93597	0.33048698
73	0x3eff1398	0.49819636
74	0x3e3fdef8	0.187374
75	0xbed43c40	-0.41452217
76	0xbeb45f83	-0.3522912
77	0x3ec4d852	0.3844629
78	0xbdad80b3	-0.08471813
79	0x3eb372f0	0.35048628
80	0x3ebac474	0.36478007
81	0xbeeaa830	-0.45831442
82	0xbf187e88	-0.5956807
83	0xbbb49de1	-0.0055119847
84	0x3eb55f26	0.35424155
85	0xbe39af70	-0.1813333
86	0x3eb6b20e	0.3568272
87	0x3bdb9251	0.006700792
88	0x3e3ffdac	0.18749112
89	0xbe3adfad	-0.18249388
90	0x3e399655	0.18123753
91	0x3ea0d0d6	0.3140933
92	0x3ed6a955	0.41926065
93	0x3de4d371	0.11173142
94	0x3dedc91b	0.116106234
95	0x3e88fd53	0.2675577
96	0x3e85a5d6	0.26103085
97	0xbf179ec0	-0.5922661
98	0x3ea07519	0.31339338
99	0xbd9bd25b	-0.076084815
100	0x3d29e9e2	0.041482814
101	0x3e938e0a	0.28819305
102	0xbca04bf5	-0.01956747
103	0x3dc67f78	0.096922815
104	0x3e147995	0.14499505
105	0x3ea551ba	0.32288915
106	0x3ec78ef3	0.3897625
107	0x3e399a3d	0.18125243
108	0x3e52e474	0.2059496
109	0x3e5853c3	0.21125703
110	0x3d990562	0.0747173
111	0xbd8f2169	-0.06988794
112	0xbec0247e	-0.3752784
113	0x3efa2810	0.4885869
114	0xbe7ac25b	-0.24488203
115	0x3e02a020	0.12756395
116	0x3c826c95	0.015920917
117	0x3efb0709	0.49028805
118	0xbed1eb2a	-0.40999728
119	0x3de11e29	0.10992081
120	0xbec8e523	-0.39237317
121	0x3efc9ff7	0.49340793
122	0xbb3f909b	-0.0029230479
123	0xbea54a1a	-0.32283098
124	0x3ebb9dc2	0.36643797
125	0x3daf9a37	0.08574336
126	0x3e6de756	0.23232779
127	0xbd6aa837	-0.05728933
128	0x3ea1143b	0.31460747
129	0xbd6adc34	-0.05733891
130	0x3cdfc7c1	0.02731693
131	0xbdb3e86d	-0.08784566
132	0xbd831cb6	-0.064019606
133	0x3ee80c7f	0.45322034
134	0xbdda2e3d	-0.106533505
135	0x3d052c3d	0.032512892
136	0x3e798cb2	0.24370077
137	0xbdbbf6f5	-0.09177963
138	0xbe2374a4	-0.15962464
139	0x3dbecbcb	0.09316214
140	0xbf083040	-0.53198624
141	0xbeb511d2	-0.35365158
142	0x3e8817f8	0.26580787
143	0xbdf49f9c	-0.119445056
144	0x3eaf47f0	0.3423457
145	0x3c38b955	0.011274655
146	0x3e8c15fe	0.2736053
147	0xbbb30874	-0.005463654
148	0x3d778713	0.06043155
149	0xbc7fb331	-0.015606687
150	0x3ec9f2ec	0.39443147
151	0x3e8d8ab2	0.2764488
152	0x3e0bd08c	0.13653773
153	0x3e22badc	0.15891594
154	0x3da53847	0.08067375
155	0xbd621a56	-0.055200897
156	0x3c46b92a	0.0121291075
157	0xbd061227	-0.032732155
158	0x3eb8722f	0.36024615
159	0x3d5e01d4	0.054200962
160	0x3e5f2018	0.21789587
161	0xbf031b0f	-0.51213163
162	0x3ea79163	0.3272811
163	0xbeef8a54	-0.46785223
164	0x3de56b1a	0.112020686
165	0x3dec87bb	0.11549326
166	0x3e0e438f	0.13892959
167	0x3e654de0	0.22392988
168	0xbeb8fd82	-0.3613091
169	0xbcc8deb3	-0.024520254
170	0x3e7a102e	0.24420235
171	0xbca272e2	-0.019830171
172	0xbf1af99b	-0.6053712
173	0xbcec09af	-0.028813211
174	0x3e730fbc	0.23736471
175	0x3daa65fe	0.08320235
176	0x3dde61f5	0.108585276
177	0x3dbf7b16	0.09349649
178	0xbe505c4f	-0.20347713
179	0x3e318f5d	0.17339845
180	0x3d92f172	0.07174958
181	0x3eb509c8	0.35359025
182	0x3f04aba5	0.5182441
183	0xbdce9df2	-0.100887194
184	0xbe916808	-0.28399682
185	0xbe412a7c	-0.18863863
186	0xbe0f9db1	-0.14024998
187	0x3eb9cc30	0.36288595
188	0x3e90ecf9	0.28305796
189	0xbe5668e6	-0.20938453
190	0x3d86e6d2	0.06586994
191	0x3da7f75d	0.08201478
192	0x3d44b6de	0.04802596
193	0xbe65745f	-0.22407673
194	0xbea73491	-0.32657292
195	0x3ef79850	0.48358393
196	0x3eaa5d09	0.33274105
197	0xbdbb7247	-0.09152656
198	0xbe83b2dd	-0.257224
199	0x3c512369	0.01276479
200	0x3ed979ae	0.42475647
201	0xbdd71c29	-0.10503418
202	0x3ef525ae	0.4788031
203	0x3eb96b9e	0.36214918
204	0x3e44b5d0	0.19209981
205	0x3e2ad1e1	0.16681625
206	0x3b646306	0.0034849062
207	0x3d3aedbd	0.04563688
208	0x3eaf979a	0.3429535
209	0xbddc2dd6	-0.1075093
210	0x3ea99e8a	0.33128768
211	0x3e911219	0.2833412
212	0xbe7e9233	-0.24860458
213	0x3e3d5909	0.18490995
214	0x3c8745b0	0.016512722
215	0x3b7b1a84	0.0038315365
216	0xbdede2a9	-0.116154976
217	0xbe677868	-0.22604525
218	0xbea31ed6	-0.31859463
219	0x3e4eb869	0.20187534
220	0x3db548c4	0.088517696
221	0x3d5e5485	0.054279823
222	0xbe865c1b	-0.26242146
223	0xbe8454c8	-0.25845933
224	0xbef922d5	-0.48659387
225	0xbd9b023e	-0.07568787
226	0xbe7a953a	-0.24470988
227	0x3e950363	0.29104146
228	0x3ed7a3c0	0.4211712
229	0xbd4ac1e9	-0.049501333
230	0xbdd755bc	-0.105143994
231	0xbde03dba	-0.109492734
232	0xbe202181	-0.1563778
233	0x3cde3896	0.027126592
234	0xbda96793	-0.08271708
235	0x3e8b41f0	0.27198744
236	0x3eb824c2	0.35965544
237	0xbdbf0f00	-0.09329033
238	0xbe8c4cb8	-0.27402282
239	0xbf4ff52a	-0.81233466
240	0xbf06c5ca	-0.5264555
241	0xbc8769eb	-0.016529998
242	0x3e733083	0.23748975
243	0x3dd8c173	0.105837725
244	0x3e05ad94	0.13054496
245	0xbdc1536f	-0.09439742
246	0x3d57f71d	0.0527259
247	0x3c8c6b5b	0.017141035
248	0x3ed449fa	0.4146269
249	0xbdc750e2	-0.09732224
250	0xbf04a557	-0.5181479
251	0x3e8513f8	0.25991797
252	0x3e96eb31	0.29476312
253	0x3daa12f0	0.08304393
254	0x3b7867cc	0.0037903665
255	0xbe13a0b8	-0.14416778

sequential_2/dense_12/MatMul f4 [64, 128]
0	0x3e572dde	0.2101359
1	0xbdb43ffb	-0.08801266
2	0xbf95b335	-1.1695315
3	0x3d4e9acb	0.05044059
4	0xbf2d662e	-0.6773404
5	0x3eebe87b	0.46075806
6	0xbdf85404	-0.121254
7	0x3ee3e7f0	0.44512892
8	0xbe23b707	-0.15987788
9	0xbf3749a9	-0.7159677
10	0x3eecc2cf	0.46242377
11	0x3deb84b2	0.11499919
12	0x3d2cc99c	0.042184457
13	0x3e236661	0.15957023
14	0xbeee312b	-0.46521887
15	0x3ed87769	0.42278603
16	0xbf2b1585	-0.6682971
17	0xbed2096f	-0.41022822
18	0x3c46f836	0.012144139
19	0x3e614032	0.21997145
20	0xbec5c6b1	-0.38628152
21	0x3edb74db	0.4286259
22	0x3af41943	0.0018623251
23	0x3e1f96bb	0.15584843
24	0xbf1b3091	-0.6062098
25	0x3ddf56c3	0.1090522
26	0x3d6db699	0.058035467
27	0xbd4f38f4	-0.050591424
28	0xbf48e260	-0.7847042
29	0xbf450f54	-0.76976514
30	0xbf062ac4	-0.52409005
31	0xbdf33e04	-0.11877063
32	0xbced98a9	-0.029003458
33	0x3ef17b4f	0.4716439
34	0xbefd5376	-0.49477738
35	0xbee61343	-0.4493657
36	0xbdf61e98	-0.12017554
37	0x3d09f099	0.033676717
38	0xbf705d08	-0.93891954
39	0xbf114300	-0.5674286
40	0xbf44f9f8	-0.7694392
41	0x3e9ba313	0.30397853
42	0xbccf4969	-0.02530356
43	0xbf0a928b	-0.54129857
44	0xbe3156c8	-0.1731826
45	0xbdf30068	-0.11865312
46	0xbeeb1416	-0.45913762
47	0x3e6bb008	0.2301637
48	0x3e55cb32	0.20878294
49	0x3e495f36	0.19665226
50	0xbecaaac3	-0.39583406
51	0xbf29edf8	-0.66378736
52	0x3d22aa35	0.039713103
53	0x3e4dd7c5	0.20101841
54	0x3e03863b	0.12844174
55	0xbf44829d	-0.767618
56	0xbfa2c69e	-1.2716863
57	0x3ec22034	0.37915194
58	0xbf1a6b78	-0.60320234
59	0x3cc1b4c0	0.023645759
60	0x3e2d0b2d	0.16898794
61	0xbedd83ae	-0.43264526
62	0xbee6799f	-0.45014665
63	0xbbab2b2d	-0.005223653
64	0xbf4cf2ec	-0.8005817
65	0x3e81aeaa	0.2532857
66	0xbf34cf1b	-0.7062852
67	0xbc91162c	-0.017710768
68	0x3efde914	0.49591887
69	0xbfa4b39f	-1.2867316
70	0x3f1332c9	0.57499367
71	0x3eec5115	0.4615561
72	0xbfa47b8e	-1.2850206
73	0xbf034871	-0.5128241
74	0xbf2662ea	-0.6499468
75	0x3e1d89bc	0.15384573
76	0x3ee6fdbe	0.45115465
77	0x3b55c18e	0.0032616588
78	0xbbc1ad40	-0.0059105456
79	0xbf24c49a	-0.6436249
80	0x3d6bea82	0.05759669
81	0x3dd2334e	0.10263692
82	0x3eb36e40	0.35045052
83	0xbf3043e5	-0.688536
84	0x3ea833dd	0.3285207
85	0x3ea262b6	0.31715935
86	0x3e288ccb	0.16459958
87	0xbe163e73	-0.1467226
88	0x3e3d72bf	0.18500803
89	0xbebd3863	-0.36957082
90	0xbf346576	-0.7046732
91	0x3e610fe2	0.21978715
92	0x3e824618	0.25444102
93	0x3ede899c	0.43464363
94	0x3c6c0bcc	0.0144071095
95	0xbc12e5e5	-0.008965944
96	0x3f0cce01	0.55001837
97	0x3e8659df	0.2624044
98	0xbf3cbb5d	-0.73723394
99	0xbf257ea4	-0.64646363
100	0xbde175da	-0.110088065
101	0x3f103eb2	0.56345665
102	0x3e8d938b	0.2765163
103	0xbf0f089e	-0.55872524
104	0x3e7495d4	0.2388528
105	0x3e24dfe7	0.16101037
106	0xbf86d3ea	-1.0533421
107	0x3e985a97	0.29756615
108	0x3c9f42bc	0.019441001
109	0xbe84c282	-0.25929648
110	0xbf439712	-0.7640239
111	0xbf2cffd7	-0.6757788
112	0xbf283997	-0.65712875
113	0xbf2398e0	-0.63905144
114	0xbf2b409d	-0.6689547
115	0xbf2688ec	-0.65052676
116	0x3f04b3be	0.51836765
117	0xbdabe7b8	-0.08393806
118	0xbdfa027e	-0.122075066
119	0xbdc279dc	-0.09495899
120	0x3e04c985	0.12967499
121	0xbef429a5	-0.47688022
122	0x3e328d06	0.17436609
123	0x3eff2084	0.49829495
124	0x3e3ab6ee	0.18233845
125	0x3e398de4	0.18120533
126	0xbf326eeb	-0.697005
127	0x3e8fdb3a	0.28096944
128	0xbf12bf30	-0.5732298
129	0xbc9d898c	-0.019230627
130	0x3f50fcb8	0.8163562
131	0xbe67a0d2	-0.22619942
132	0x3ee60d1f	0.44931886
133	0x3edbc977	0.42927143
134	0x3db28884	0.087174445
135	0x3ed0cb3b	0.40780053
136	0x3d92226f	0.07135474
137	0x3e79d1c5	0.24396427
138	0x3ec457da	0.38348275
139	0xbece65fc	-0.40312183
140	0xbea309c9	-0.31843403
141	0x3d9d207f	0.07672214
142	0x3eb98636	0.36235207
143	0x3ec146df	0.37749383
144	0x3f009034	0.50220037
145	0x3e7df45b	0.24800245
146	0xbe570473	-0.20997791
147	0x3e5e8344	0.21729761
148	0x3e83cbb7	0.2574136
149	0x3e139119	0.14410819
150	0xbed2ec63	-0.41195974
151	0xbed3afb2	-0.41344982
152	0x3f01cbf8	0.50701857
153	0xbe9a0312	-0.30080467
154	0xbf0169c9	-0.5055204
155	0xbd9cfbee	-0.07665239
156	0x3e44110c	0.19147128
157	0x3ea8a20f	0.3293614
158	0x3eeccaa0	0.4624834
159	0xbd959040	-0.07302904
160	0xbe1296dd	-0.14315362
161	0x3e970757	0.29497787
162	0x3e388b26	0.18021831
163	0x3e9a83e7	0.30178759
164	0xbd71cbc6	-0.059032224
165	0xbea6c64a	-0.32573158
166	0x3ef2c938	0.47419143
167	0x3e525bcd	0.20542832
168	0x3e8ce60d	0.27519265
169	0xbecf233b	-0.40456566
170	0xbcca7050	-0.024711758
171	0x3ecff3f9	0.40615824
172	0xbda674ce	-0.081277475
173	0x3d7d2a18	0.06180772
174	0x3ef2799d	0.4735841
175	0xbe8e8324	-0.27834427
176	0x3ea01c1b	0.31271443
177	0xbeaa194e	-0.3322243
178	0x3ecaf807	0.39642355
179	0x3ec1203c	0.37719905
180	0xbdc78591	-0.09742273
181	0xbf0a3e2f	-0.54001135
182	0xbeada930	-0.33918142
183	0x3e894d36	0.2681672
184	0x3f8143e7	1.0098847
185	0x3eac4f86	0.33654422
186	0x3e2753f1	0.16340615
187	0xbf01008f	-0.5039148
188	0xbcafdb0d	-0.021466756
189	0x3f01f4bd	0.50764066
190	0x3ea0ad94	0.3138243
191	0x3cabe2c4	0.020982154
192	0x3ee1d33d	0.44106475
193	0x3e0c965a	0.1372923
194	0x3e67ae71	0.22625138
195	0xbea7ad95	-0.3274962
196	0x3e91d0f8	0.28479743
197	0xbf720c1a	-0.94549716
198	0x3ed28c19	0.4112251
199	0x3e2b2ebb	0.16717045
200	0x3edfe1ff	0.4372711
201	0x3ee52b2c	0.447595
202	0x3eea6a10	0.45784044
203	0xbe2be25f	-0.16785572
204	0x3e7d6e3a	0.2474908
205	0xbdd7ec6d	-0.105431415
206	0xbd8e7d08	-0.069574416
207	0x3ea0306e	0.3128695
208	0xbe2a64f5	-0.16640075
209	0xbe08aa7e	-0.13346288
210	0x3e6c29db	0.23062842
211	0x3ee7c76a	0.45269328
212	0xbec0bd31	-0.37644342
213	0xbefe50b2	-0.4967094
214	0xbe1ac619	-0.15114631
215	0xbed6c468	-0.4194672
216	0xbedaefd1	-0.4276109
217	0x3e40f596	0.18843684
218	0x3f0952d5	0.53642017
219	0xbf18a7cb	-0.5963103
220	0x3e7632de	0.24042842
221	0x3eecbefb	0.46239457
222	0xbeeee44f	-0.4665856
223	0xbcff9e87	-0.031203521
224	0x3e87912b	0.26477942
225	0xbefb23cf	-0.49050757
226	0x3ec76fc1	0.3895245
227	0x3ec7f0b5	0.39050832
228	0xbd8896c3	-0.066693805
229	0x3ec8ac1b	0.39193806
230	0xbe6db057	-0.232118
231	0x3efe733a	0.49697286
232	0xbe8620ba	-0.26196843
233	0xbeede1e9	-0.46461418
234	0x3f07a6a3	0.5298864
235	0xbece018a	-0.4023555
236	0xbf59d41e	-0.8508929
237	0xbf4bd1ed	-0.79617196
238	0x3ef326ee	0.47490638
239	0x3e811209	0.25209072
240	0x3e59f1c1	0.21283628
241	0x3eec44f9	0.46146372
242	0x3ef075aa	0.4696477
243	0x3f09ddd7	0.53854126
244	0x3e9ec9ff	0.31013486
245	0xbfa9541e	-1.3228796
246	0xbcedfc60	-0.029051006
247	0xbf6651bf	-0.89968485
248	0xbeeb810a	-0.45996886
249	0x3e6d8b5e	0.23197696
250	0xbf110061	-0.56641203
251	0x3ec84dd9	0.39121893
252	0xbf15f4eb	-0.5857684
253	0xbecb4622	-0.39701945
254	0x3e9a9766	0.30193633
255	0xbee767c0	-0.45196342

sequential_2/dense_13/MatMul f4 [1, 64]
0	0xbf8dbea2	-1.1073802
1	0x3f08f719	0.5350204
2	0x3b5b849c	0.003349579
3	0xbf782bd2	-0.96941864
4	0xbf9b399d	-1.2126957
5	0xbe824e6a	-0.2545045
6	0x3e65fae8	0.22458994
7	0x3f21760b	0.63070744
8	0x3ec69859	0.38788107
9	0x3f1db5ce	0.61605537
10	0xbf845d76	-1.0341022
11	0xbdd1c810	-0.10243237
12	0x3f269cea	0.6508318
13	0x3f03ddb0	0.51510143
14	0x3f1836a4	0.59458375
15	0x3e44177f	0.19149588
16	0xbf7b54ae	-0.98176086
17	0x3ee933bc	0.45547283
18	0x3f02a88c	0.5103843
19	0x3f26db1f	0.651781
20	0xbf72e68e	-0.9488305
21	0x3ee72958	0.4514873
22	0xbf8344a6	-1.0255325
23	0x3ef1e948	0.47248292
24	0x3f09926c	0.5373905
25	0x3c4c7f61	0.012481541
26	0x3f1ae540	0.6050606
27	0x3fb0236f	1.3760813
28	0x3f1a6a23	0.603182
29	0x3f05b65b	0.5223138
30	0x3dac232c	0.08405146
31	0xbf5f5637	-0.8724093
32	0x3f08257e	0.5318221
33	0x3f1f5174	0.6223366
34	0x3e3d5fde	0.18493602
35	0x3f2dfacb	0.67960805
36	0x3f1ca7b9	0.61193424
37	0x3ee8156e	0.4532885
38	0x3ed93582	0.42423636
39	0xbdf5f036	-0.12008707
40	0xbf7711f2	-0.9651176
41	0xbe75a46b	-0.23988502
42	0x3aa52af1	0.0012601299
43	0xbf70db95	-0.94085056
44	0x3facdbbf	1.3504561
45	0x3ee533cf	0.4476609
46	0xbf869d7d	-1.0516812
47	0x3ed519b2	0.41621166
48	0x3f20d594	0.62825894
49	0xbf6783db	-0.9043557
50	0x3f9fb8c8	1.2478266
51	0xbf8ff8a2	-1.1247752
52	0xbf8c7dd5	-1.0975901
53	0xbf7439f2	-0.9540092
54	0xbf822a08	-1.0169077
55	0x3f0bd762	0.54625523
56	0xbf8e3a16	-1.1111476
57	0xbf98d491	-1.193987
58	0x3f33a55a	0.7017418
59	0x3f21893a	0.63100016
60	0xbf8d0282	-1.101639
61	0xbf70ca69	-0.94058853
62	0xbd363090	-0.044479907
63	0x3f02b6f5	0.5106042
